_ref/TamagotchU/Assets/ML_Models/Turtle.onnx (onnx, 76119 bytes, 6 tensors)

network_body._body_endoder.seq_layers.0.weight f4 [128, 5]
0	0x3ea30965	0.31843105
1	0x3f32d68d	0.6985863
2	0xbeaa297f	-0.33234784
3	0xbf22d555	-0.6360677
4	0xbea0be94	-0.313954
5	0xbec40e4a	-0.38292152
6	0x3e9ed287	0.31019995
7	0xbf1d36ee	-0.6141194
8	0xbd86d3a4	-0.06583336
9	0x3d4677ee	0.048454218
10	0x3eec126f	0.46107814
11	0xbdedbc93	-0.11608233
12	0x3d678dce	0.05653172
13	0x3e8c7a0b	0.2743686
14	0x3e650404	0.22364813
15	0x3f4f5335	0.8098634
16	0x3ebec196	0.3725707
17	0xbe88028e	-0.2656445
18	0xbf259ca6	-0.6469215
19	0x3d358841	0.044319395
20	0x3ed8194d	0.42206803
21	0xbf91ced0	-1.1391239
22	0x3f7e01b9	0.9922138
23	0x3ed0e1de	0.40797323
24	0xbe09e14a	-0.13464847
25	0xbdcb845e	-0.099373564
26	0xbf86d1c4	-1.0532765
27	0xbe4ae858	-0.19815195
28	0x3ed8547e	0.42251962
29	0x3d0185c5	0.031621713
30	0xbf188af0	-0.59587
31	0x3ec3f91d	0.38275996
32	0x3f1c7dff	0.61129755
33	0x3e04aab6	0.12955746
34	0x3d691043	0.056900274
35	0xbee23b43	-0.44185838
36	0x3f691bba	0.9105793
37	0xbef2f45e	-0.47452062
38	0x3e37ca01	0.17948152
39	0xbd74ab39	-0.059733603
40	0x3ebddb44	0.3708135
41	0x3ee8ee5e	0.4549436
42	0x3f42a029	0.76025635
43	0xbe98bd41	-0.2983189
44	0x3e722e83	0.23650555
45	0xbdfb7fc6	-0.1228023
46	0xbd8c6684	-0.06855491
47	0xbec2bb52	-0.3803354
48	0xbe02f06c	-0.12787026
49	0xbf95f584	-1.171555
50	0x3e453b0e	0.19260809
51	0x3da2b505	0.07944683
52	0x3f8529c4	1.0403371
53	0xbeb72028	-0.3576672
54	0x3ec1d6de	0.37859243
55	0x3e153c08	0.14573681
56	0x3e7b341b	0.24531595
57	0xbea24f70	-0.3170123
58	0xbec25db1	-0.37962106
59	0x3ee14077	0.43994495
60	0xbe669e72	-0.2252138
61	0x3ebc9823	0.3683482
62	0x3f4d0ddb	0.80099267
63	0xbf6eb27a	-0.93241084
64	0x3e06d077	0.1316546
65	0x3ebd5151	0.36976102
66	0xbf1f8d2b	-0.6232478
67	0xbf860719	-1.0470916
68	0xbeba4bb1	-0.36385873
69	0x3f0cda09	0.55020195
70	0x3eb6ce83	0.3570443
71	0xbd9c85fa	-0.076427415
72	0xbf19be90	-0.600564
73	0x3f761478	0.9612498
74	0x3f3f15f2	0.7464286
75	0x3e09206e	0.13391277
76	0x3de56b14	0.11202064
77	0x3f13f031	0.5778838
78	0xbedda299	-0.43288115
79	0xbf001a35	-0.5003999
80	0xbf0b2818	-0.54358053
81	0xbe376126	-0.17908153
82	0xbee4bf98	-0.44677424
83	0x3cf1a29e	0.029496487
84	0x3ea62e95	0.32457414
85	0x3f68b20b	0.9089667
86	0x3ef9295a	0.4866436
87	0x3eb15a37	0.3463914
88	0x3cb16662	0.021655265
89	0xbe085fdd	-0.13317819
90	0x3f3d055a	0.7383629
91	0xbedc2753	-0.42998752
92	0x3f27d01d	0.6555193
93	0x3f469511	0.7757121
94	0x3eeef837	0.46673748
95	0x3da59090	0.08084214
96	0x3f14ac98	0.5807586
97	0x3efd6795	0.4949309
98	0x3d24c6e1	0.04022873
99	0x3e5333ec	0.20625275
100	0xbed32eae	-0.4124655
101	0xbd8d24fe	-0.06891821
102	0xbf14ddf9	-0.58151203
103	0x3d73573e	0.059409373
104	0xbf182080	-0.5942459
105	0xbec2f172	-0.38074833
106	0x3e9e7c82	0.30954367
107	0xbe3fba32	-0.18723372
108	0xbf36ea9b	-0.7145173
109	0xbf89640c	-1.0733657
110	0x3f062c7d	0.52411634
111	0x3ef9de80	0.48802567
112	0xbef8fdd5	-0.48631158
113	0x3cd13245	0.025536666
114	0xbf83b866	-1.0290649
115	0xbea292c7	-0.31752607
116	0xbe1d0d6f	-0.15337156
117	0x3caa25ea	0.020770032
118	0x3f44518f	0.7668695
119	0x3e74a66a	0.23891607
120	0x3f3142cb	0.69242543
121	0x3da4d729	0.08048851
122	0xbe425a68	-0.189798
123	0xbe1a41ce	-0.15064165
124	0xbe415f90	-0.1888411
125	0x3e1568bb	0.14590733
126	0xbefaece1	-0.4900885
127	0x3f5b0448	0.8555341
128	0x3f1211bb	0.57058305
129	0xbf2bfed7	-0.6718573
130	0xbdd4166b	-0.103558384
131	0x3ddd3648	0.10801369
132	0xbf0f4a90	-0.5597315
133	0xbe13d7d1	-0.14437796
134	0x3c1895e0	0.009313077
135	0x3d8ebb67	0.06969338
136	0xbf59b51e	-0.8504199
137	0xbead230d	-0.33815804
138	0xbed67481	-0.4188576
139	0xbe22720b	-0.15863816
140	0xbf6e1549	-0.9300123
141	0xbedca66a	-0.43095714
142	0x3fa8ff46	1.3202903
143	0xbf026988	-0.5094228
144	0xbe71f98f	-0.23630355
145	0xbd845f84	-0.06463531
146	0xbe18ed03	-0.14934163
147	0x3d299bc2	0.041408308
148	0x3e5d5b25	0.216168
149	0x3eed81be	0.46388048
150	0xbef46321	-0.4773188
151	0xbe47b8ec	-0.19504136
152	0x3e33284a	0.17495838
153	0xbc7ee743	-0.015558067
154	0xbef98eec	-0.48741853
155	0x3eed996a	0.46406108
156	0xbd1df64a	-0.038564958
157	0xbe6aa217	-0.22913395
158	0xbecf5ee6	-0.4050209
159	0x3ece3be8	0.4028008
160	0x3eb53f91	0.3540006
161	0xbe9c370b	-0.30510744
162	0xbe17ed72	-0.14836672
163	0xbed51f10	-0.4162526
164	0x3e8ab5bf	0.27091786
165	0x3eac1e2a	0.33616763
166	0xbf64fe2b	-0.8945033
167	0xbc3e0bf1	-0.011599527
168	0xbde46600	-0.111522675
169	0x3ee40e17	0.44542
170	0x3d75b8f6	0.059990846
171	0xbe6f5e15	-0.23375733
172	0xbe822e6c	-0.25426042
173	0x3f3504b6	0.70710313
174	0x3dcd858f	0.1003524
175	0x3eeec109	0.4663165
176	0x3ecfae3c	0.40562618
177	0x3e060774	0.1308878
178	0x3eeaf972	0.45893437
179	0xbf1093fb	-0.564758
180	0x3df1b966	0.1180294
181	0xbdb4391c	-0.08799955
182	0xbec85263	-0.39125356
183	0xbf6ed63a	-0.93295634
184	0xbe1aa6d1	-0.15102698
185	0x3dec5411	0.11539472
186	0x3e0ca0a6	0.13733158
187	0xbee423d5	-0.44558588
188	0x3e8e8c43	0.27841386
189	0xbe341cbe	-0.1758909
190	0x3f4780e9	0.77931076
191	0xbe29c825	-0.16580255
192	0xbd92270d	-0.071363546
193	0x3f32c5d8	0.69833136
194	0xbecebec2	-0.40379912
195	0xbe74c9a6	-0.23905048
196	0x3d9d3960	0.07676959
197	0x3d44f05b	0.048080783
198	0x3e8e6701	0.2781296
199	0x3ec7f5ef	0.3905482
200	0x3eacc2b4	0.33742297
201	0x3f7161b6	0.9428972
202	0x3cffb554	0.031214394
203	0xbe1a2c1b	-0.15055887
204	0xbe21b3b5	-0.15791209
205	0x3f8d7302	1.1050723
206	0xbebbfdcc	-0.3671707
207	0x3dcd20a3	0.100159906
208	0xbf8141e9	-1.0098239
209	0xbdcebc6e	-0.10094534
210	0xbf055c6b	-0.52094144
211	0x3f09058a	0.53524077
212	0xbf4b2851	-0.7935839
213	0xbe8dd404	-0.27700818
214	0xbd988e64	-0.07449034
215	0xbcd4c85d	-0.025974447
216	0xbebdc8f7	-0.37067387
217	0xbe370252	-0.17871979
218	0x3b141926	0.0022597997
219	0x3f801cf4	1.0008836
220	0xbe96f822	-0.29486185
221	0x3eab2da4	0.3343326
222	0xbe974701	-0.2954636
223	0xbf0c1be7	-0.54730076
224	0xbeaaf1f9	-0.33387735
225	0x3d11ec15	0.035625536
226	0x3ed89e8a	0.42308456
227	0xbe869a36	-0.2628953
228	0xbdab7d3f	-0.08373498
229	0x3cb8c733	0.022555923
230	0x3f0e4637	0.5557589
231	0x3ec4efe6	0.38464278
232	0xbe7ee8d7	-0.24893509
233	0xbe27d5cc	-0.16390151
234	0xbf02091e	-0.5079516
235	0xbcf5be5e	-0.029998
236	0xbeaf7a97	-0.34273216
237	0x3e4f14a5	0.20222719
238	0xbf3fbc75	-0.7489694
239	0xbf46bf79	-0.77635914
240	0x3d13d40a	0.036090888
241	0xbf7cf22d	-0.9880703
242	0xbe4122b0	-0.18860888
243	0xbede0f48	-0.43371034
244	0x3eb886fa	0.3604048
245	0xbf2b8fc4	-0.67016244
246	0xbf0a4624	-0.54013276
247	0x3cc22649	0.023699896
248	0x3d5b0681	0.053473
249	0xbf075bc1	-0.5287438
250	0x3f1384e5	0.57624656
251	0x3f0bf773	0.5467445
252	0xbe4b4192	-0.19849232
253	0x3eaec152	0.34131867
254	0x3ed48cda	0.4151371
255	0x3e9ecd19	0.31015852

network_body._body_endoder.seq_layers.0.bias f4 [128]
0	0x3d53695f	0.05161416
1	0xbd05a065	-0.032623667
2	0xbd80bdf6	-0.06286232
3	0xbd4d18bb	-0.050072413
4	0x3dbe1f80	0.09283352
5	0xbc8fa078	-0.017532572
6	0x3deb1fdd	0.11480687
7	0x3d29a5ba	0.041417815
8	0x3df3eba2	0.11910178
9	0x3da548d4	0.080705315
10	0x3d5317de	0.051536433
11	0xbd0808f1	-0.033211652
12	0x3d86d217	0.0658304
13	0xbd24c59f	-0.04022753
14	0xbd2c14ab	-0.042011898
15	0x3d22878e	0.039680056
16	0xbc85b9f2	-0.016324017
17	0x3b6d251a	0.0036185444
18	0xbc26d329	-0.01018218
19	0x3deae5f1	0.11469639
20	0x3dc24381	0.094855316
21	0x3d9c46fa	0.07630725
22	0x3d8988f9	0.067155786
23	0x3c959333	0.018258667
24	0xbdb0a031	-0.08624304
25	0x3d93573c	0.07194373
26	0xbd030a46	-0.03199222
27	0x3a67572c	0.00088249403
28	0x3d48d1d6	0.04902824
29	0x3cd7481c	0.026279502
30	0x3db860fe	0.09002875
31	0xbd063742	-0.03276754
32	0xbd2b7d2b	-0.041867416
33	0xbce51cfc	-0.027967922
34	0xbd1e03f4	-0.03857799
35	0x3d77c62e	0.060491733
36	0xbcdcb3af	-0.026941149
37	0xbd8d9b31	-0.06914366
38	0x3d95b282	0.07309438
39	0xbd0de438	-0.034641474
40	0xbcbbe4fa	-0.022936333
41	0xbc1d6ef0	-0.009608969
42	0xbd13dcab	-0.036099117
43	0x3d4382cc	0.04773216
44	0x3d464d83	0.048413765
45	0xbd641518	-0.05568418
46	0x3d273716	0.04082402
47	0x3c84ac69	0.016195493
48	0x3cb6f935	0.022335628
49	0x3dd8f0fe	0.105928406
50	0xbd939852	-0.07206787
51	0x3dd5c1cd	0.10437355
52	0x3d55bad0	0.05218011
53	0x3dc86321	0.09784532
54	0xbc61b77f	-0.013776659
55	0x3dace325	0.08441762
56	0x3d438c82	0.04774142
57	0x3d884b51	0.066549905
58	0xbc5ebbc5	-0.013594572
59	0x3d953587	0.072856
60	0x3d9f59df	0.077808134
61	0x3dcd39bd	0.10020778
62	0xbda8342b	-0.08213075
63	0x3dc3e007	0.09564214
64	0xbca34742	-0.01993144
65	0x3d8d3012	0.06893934
66	0x3dc4bda6	0.09606485
67	0x3d9c939e	0.07645343
68	0x3d82b1b9	0.06381554
69	0x3d66a3fc	0.05630873
70	0x3d41df9d	0.047332395
71	0x3d67fc0b	0.05663685
72	0x3dcfc6be	0.10145329
73	0xbd3ec916	-0.04657849
74	0x3daf068c	0.085461706
75	0x3d2c7127	0.042100098
76	0xbc8f9918	-0.017529055
77	0x3d363919	0.044488046
78	0x3dc17e83	0.09447958
79	0xbdc75d87	-0.09734636
80	0x3c9e6d1b	0.019339135
81	0xbc953304	-0.018212803
82	0x3cf571f5	0.029961566
83	0x3d1dc3e8	0.03851691
84	0x3da79ef5	0.081846155
85	0x3bd5a188	0.0065195
86	0x3d94f582	0.072733894
87	0x3d26d020	0.040725827
88	0x3d6a0d86	0.057141803
89	0x3d5b6fc7	0.053573396
90	0x3d862569	0.06550104
91	0x3b7fdeb8	0.0039042663
92	0xbcabf0ed	-0.020988906
93	0xbc38d883	-0.011282089
94	0x3c32b8aa	0.010908285
95	0x3d2fe7c4	0.04294564
96	0x3bb1b2f0	0.0054229423
97	0x3dbbe9b4	0.09175435
98	0x3cd68a16	0.026188891
99	0x3d3d8145	0.04626586
100	0x3c7d7c9a	0.015471602
101	0xbb989199	-0.0046560285
102	0x3d076646	0.03305652
103	0xbd0d56f5	-0.034506757
104	0x3c7a7c36	0.015288403
105	0x3de284df	0.110604994
106	0x3cc9a055	0.024612585
107	0x3dd9c469	0.106331654
108	0x3db73447	0.08945518
109	0x3d1dcb7a	0.03852413
110	0x3da6ea02	0.08150102
111	0xbc67f956	-0.014158567
112	0xbb58c744	-0.0033077756
113	0x3db7dae2	0.089772955
114	0xbd686da2	-0.05674518
115	0x3d813121	0.06308199
116	0x3d724ae4	0.059153453
117	0xbd849af2	-0.06474866
118	0x3d114af9	0.03547189
119	0x3d88ca29	0.06679184
120	0x3d79b174	0.060960248
121	0x3cff5652	0.03116909
122	0x3e0ae400	0.13563538
123	0x3d729f30	0.059233844
124	0x3d8b6b95	0.06807629
125	0x3d4a84bf	0.049443003
126	0xbdae9deb	-0.08526214
127	0x3ce36e6e	0.027762618

network_body._body_endoder.seq_layers.2.weight f4 [128, 128]
0	0x3d2caf72	0.042159505
1	0x3d93a553	0.072092675
2	0x3c8efc4c	0.017454289
3	0xbd5a9292	-0.053362437
4	0xbdc4927d	-0.09598253
5	0x3ac6e02e	0.0015173012
6	0xbe5232a2	-0.20527127
7	0x3cfe3401	0.031030657
8	0xbbcb3992	-0.0062019313
9	0xbb14f92a	-0.0022731521
10	0xbd65fa40	-0.05614686
11	0xbe1bdf9a	-0.15222016
12	0x3d7c4a3e	0.06159424
13	0x3c1ed01c	0.009693172
14	0x3e0576e7	0.13033639
15	0xbe3174ae	-0.17329666
16	0x3cc1ac06	0.023641597
17	0xbdd87d73	-0.105708025
18	0x3db25e1d	0.08709357
19	0xbd613742	-0.05498434
20	0xbc99fc40	-0.01879704
21	0xbd82a9aa	-0.06380017
22	0x3b6849d1	0.0035444389
23	0x3df1896c	0.11793789
24	0x3d4f3f1c	0.050597295
25	0x3ad56897	0.001628178
26	0x3cb48070	0.0220339
27	0xbdb9d530	-0.090738654
28	0xbcc31b10	-0.023816615
29	0xbd1df111	-0.038559977
30	0x3ce3a6a3	0.02778942
31	0x3d14cade	0.03632628
32	0xbd609138	-0.05482599
33	0xbd8c1205	-0.068393745
34	0x3db2e7e2	0.087356344
35	0xbd21e35c	-0.039523467
36	0x3db73603	0.08945849
37	0x3d409837	0.047020163
38	0x39028d99	0.00012450515
39	0x3d83ffea	0.06445296
40	0xbe0a0293	-0.13477544
41	0x3d818b1a	0.0632536
42	0xbcb168a5	-0.021656344
43	0x3da82174	0.08209506
44	0xbdcfd92e	-0.101488456
45	0xbd23b3ac	-0.03996627
46	0x3c649aba	0.013952905
47	0x3ca475e1	0.02007574
48	0xbe10ea1d	-0.14151807
49	0xbe505e67	-0.20348512
50	0x3dd2b165	0.102877416
51	0xbd4d5577	-0.050130334
52	0x3c849cdd	0.01618808
53	0xbe4dca2e	-0.20096657
54	0xbcfe8cee	-0.03107306
55	0xbe2d6d22	-0.16936162
56	0x3c2dce47	0.010608262
57	0x3def9f1c	0.117002696
58	0xbd30dcf2	-0.04317946
59	0x3d5897a9	0.05287901
60	0x3d952d8a	0.072840765
61	0x3e43cc1e	0.19120833
62	0x3daa7d59	0.083246894
63	0x3cc56f19	0.024100827
64	0x3dcc9140	0.09988642
65	0xbc9f977d	-0.019481415
66	0x3d9b06dc	0.07569668
67	0x3d74bca2	0.059750207
68	0x3b0954cf	0.002095509
69	0x3d15d745	0.03658225
70	0x3cac60d1	0.02104226
71	0xbd7727b3	-0.060340595
72	0xbdfa4a72	-0.122212306
73	0x3d22c9ab	0.039743107
74	0xbe43b446	-0.19111738
75	0x3d0a9b0a	0.033839263
76	0x3cc61c08	0.024183288
77	0xbdab7975	-0.083727755
78	0xbd3d5252	-0.046221085
79	0x3d472a7d	0.048624504
80	0xbe2ec5ed	-0.1706769
81	0x3bba70b9	0.005689707
82	0x3d17f248	0.03709629
83	0xbd9789d6	-0.07399337
84	0xbd4622af	-0.04837292
85	0xbb2b88af	-0.0026174
86	0xbe1d6848	-0.15371811
87	0xbe41e8ff	-0.18936537
88	0x3cd52ba9	0.026021795
89	0xbe75b4f8	-0.23994815
90	0x3c9fd21c	0.019509368
91	0xbc7a3085	-0.015270357
92	0x3c10304f	0.00880058
93	0xbccd2bdb	-0.025045326
94	0x3d76eedb	0.060286384
95	0xbdbcea0f	-0.09224331
96	0x3d92fe28	0.07177383
97	0xbde58b65	-0.11208228
98	0xbc743c8e	-0.0149070155
99	0x3b509780	0.0031828582
100	0xbd3fb4a9	-0.04680315
101	0xbb7469aa	-0.0037294426
102	0xbdbde255	-0.09271685
103	0xbe676828	-0.22598326
104	0xbddbaa40	-0.10725832
105	0x3cd7db0b	0.026349565
106	0xbca3817b	-0.019959202
107	0x3d99b638	0.075054586
108	0xbe2bd37b	-0.16779892
109	0x3d9c857a	0.07642646
110	0xbda2f969	-0.079577275
111	0xbe47a226	-0.19495448
112	0xbca45bf9	-0.020063387
113	0xbe04d613	-0.12972288
114	0x3c712a09	0.014719495
115	0x3c94720c	0.018120788
116	0xbb9ac03f	-0.0047226246
117	0x3cc418a4	0.02393753
118	0xbaeed174	-0.0018220381
119	0xbd8a40b6	-0.06750624
120	0x3b9e07ad	0.0048226924
121	0x3cd74758	0.026279137
122	0xbdde8250	-0.10864699
123	0xbc18a558	-0.009316765
124	0x3da05427	0.07828551
125	0x3d11cc4b	0.03559522
126	0xbb58281a	-0.0032982887
127	0x3dd8cdc6	0.10586123
128	0xbe133824	-0.14376885
129	0xbd69ead5	-0.05710872
130	0x3e49adda	0.19695225
131	0xbe167d9a	-0.1469635
132	0xbd9c0199	-0.07617492
133	0xbd2b02ea	-0.041750826
134	0x3be1d871	0.006892257
135	0x3d153436	0.036426745
136	0x3d404de2	0.046949275
137	0x3a9c8656	0.0011941891
138	0x3c519ea7	0.012794173
139	0xbd43f051	-0.047836605
140	0xbcd85e9a	-0.026412297
141	0xbe1ea0ee	-0.15491077
142	0x3e088630	0.13332438
143	0xbd45dd04	-0.04830648
144	0x3c4586e7	0.012056089
145	0xbd8abc56	-0.067742035
146	0x3dfb4f7f	0.12271022
147	0x3d9cfd2e	0.07665478
148	0xbd81b3d7	-0.0633313
149	0x3e04ad10	0.12956643
150	0x398ee5c8	0.0002725555
151	0x3d3f9111	0.046769205
152	0xbdf312e2	-0.11868836
153	0xbe172031	-0.14758374
154	0xbda797b9	-0.08183236
155	0xbdc9716d	-0.098360874
156	0xbda7b6fa	-0.08189197
157	0x3e273dc4	0.16332155
158	0xbdf460f5	-0.119325556
159	0x3c2a785d	0.010404673
160	0xbdff9a3e	-0.12480591
161	0x3e119b86	0.14219484
162	0x3d64005b	0.0556644
163	0xbe2e63be	-0.17030236
164	0xbe222e5d	-0.15837999
165	0xbdea1566	-0.11429863
166	0x3e1c3447	0.15254317
167	0x3db51063	0.08841016
168	0xbe83c111	-0.25733235
169	0xbe2eb8d4	-0.17062694
170	0xbd1fa5f1	-0.038976613
171	0x3e936cff	0.28794095
172	0xbdaff9e9	-0.085925885
173	0xbe0c32cf	-0.13691257
174	0xbe096950	-0.1341908
175	0xbda7ff50	-0.08202994
176	0x3e6a9ee2	0.22912171
177	0x3e2be861	0.16787864
178	0x3d5d67e2	0.05405415
179	0xbc8e87dd	-0.017398769
180	0x3d8d0e89	0.06887538
181	0xbdb0b3d4	-0.086280495
182	0x3d541974	0.051782086
183	0xbd1b71c0	-0.037950277
184	0xbd89d54c	-0.06730136
185	0xbc9c8907	-0.019108308
186	0x3cb1bf2a	0.0216976
187	0xbddc7818	-0.107650936
188	0x39bcd9a6	0.00036020315
189	0x3d5916ff	0.053000446
190	0x3c7184e4	0.014741156
191	0xb8998a80	-7.321406e-05
192	0x3e3404a5	0.17579897
193	0xbdd68d1a	-0.10476132
194	0x3e5b22e8	0.21400034
195	0x3d8b52bb	0.06802889
196	0xbdece71c	-0.11567518
197	0xbd86d068	-0.06582719
198	0xbd54beae	-0.05193966
199	0xbd2d607c	-0.042328343
200	0xbdc8a362	-0.09796788
201	0xbd0ec57e	-0.034856312
202	0xbce81647	-0.028330935
203	0x3d4bc91f	0.04975235
204	0xbdae3d83	-0.08507826
205	0xbdbe3718	-0.09287852
206	0xbc40ca05	-0.011766915
207	0xbe0f3773	-0.13985996
208	0xbd289c9b	-0.041164976
209	0xbe4d44d9	-0.20045795
210	0xbe00c8bf	-0.12576579
211	0xbe499e1d	-0.19689222
212	0x3e310106	0.17285547
213	0x3e1035f0	0.14083076
214	0x3e24f3d9	0.16108645
215	0xbd987896	-0.07444875
216	0xbdc87b6a	-0.09789164
217	0xbdccfe66	-0.1000946
218	0x3e11cd97	0.14238583
219	0x3b096623	0.002096542
220	0x3df3ee8e	0.11910735
221	0xbe3797f7	-0.17929064
222	0xbcd3cf10	-0.025855571
223	0xbd3ec228	-0.04657188
224	0xbe74a232	-0.23889998
225	0xbdc135ec	-0.09434113
226	0xbda1a488	-0.0789271
227	0xbe1593d7	-0.14607178
228	0xbe1382be	-0.14405343
229	0x3d6fc2f5	0.058535535
230	0x3d72ce67	0.059278872
231	0x3bb6f2a3	0.005583124
232	0x3d6b8995	0.057504255
233	0x3d2fc451	0.04291183
234	0x3d116df5	0.035505254
235	0x3cd7fb9e	0.026365098
236	0xbe22d305	-0.1590081
237	0xbb63f570	-0.0034783743
238	0xbe11d926	-0.14242992
239	0x3c919cee	0.017775025
240	0xbcf29b73	-0.02961514
241	0x3db9ca8f	0.09071838
242	0xbd863e25	-0.06554822
243	0xbc34b702	-0.011029961
244	0xbe206d69	-0.15666737
245	0x3c5fc45f	0.013657658
246	0x3b1f4eb5	0.0024308388
247	0xbd7a8439	-0.061161254
248	0xbcf8e1d3	-0.030381119
249	0x3d07b862	0.033134826
250	0x3de4948e	0.11161147
251	0x3df1935a	0.11795683
252	0x3d50efac	0.05100982
253	0x3d9c6679	0.076367326
254	0xbdeb65bf	-0.11494016
255	0xbe5f5af7	-0.21812044

network_body._body_endoder.seq_layers.2.bias f4 [128]
0	0xbd319c1b	-0.043361764
1	0x3d1ddb73	0.03853936
2	0x3c9e5141	0.019325854
3	0xbce36666	-0.027758788
4	0x3cc344fe	0.023836609
5	0xbd28a835	-0.04117604
6	0x3b73b2c0	0.00371854
7	0x3d39c976	0.045358144
8	0xbb46e885	-0.0030350995
9	0xbd91e20f	-0.071231954
10	0x3d74f8a4	0.059807435
11	0x3d28ad2d	0.04118078
12	0x3da069a5	0.0783265
13	0x3d133b8b	0.035945456
14	0xbd6fe01d	-0.05856334
15	0x3d8bf4fa	0.06833835
16	0xbc80451d	-0.015657956
17	0xbd715262	-0.058916457
18	0x3b8e005c	0.004333539
19	0xbd11c35c	-0.0355867
20	0x3cfe2b19	0.03102641
21	0x3d8e7144	0.069551975
22	0x3dbda97f	0.092608444
23	0xbc3863e4	-0.0112542845
24	0xbd0812d6	-0.03322109
25	0x3b0ad023	0.0021181188
26	0x3d333c62	0.043758757
27	0x3bb7561a	0.005594981
28	0x3d865acf	0.06560289
29	0xbbcac552	-0.006188073
30	0xbd571211	-0.052507464
31	0x3ccdbbe2	0.025114004
32	0x3d292df9	0.04130361
33	0x3bcdf995	0.006285856
34	0x3c19a1d5	0.009376963
35	0xbc328e2f	-0.010898157
36	0xbd0b3294	-0.033983782
37	0x3ba910cb	0.0051594726
38	0x3b9987fa	0.004685399
39	0x3da84267	0.0821579
40	0x3d945d83	0.072443984
41	0xbd669ad5	-0.056300003
42	0xbb096060	-0.0020961985
43	0xbd354ad9	-0.044260833
44	0x3b33475c	0.0027355766
45	0x3d98ea3a	0.0746655
46	0x3cc7f0bb	0.024406781
47	0xbd64a0a9	-0.05581728
48	0xbba42dd4	-0.005010346
49	0xbd96e71c	-0.07368299
50	0x3d134122	0.035950787
51	0x3b65c925	0.0035062518
52	0x3d62d5e5	0.055379767
53	0x3b892574	0.004185373
54	0x3d4025ff	0.046911236
55	0x3b848fca	0.0040454613
56	0x3dacba9c	0.084340304
57	0x3cf3c3e6	0.029756498
58	0x3d2daddb	0.04240213
59	0xbcd00b06	-0.025395881
60	0xbca42f4b	-0.020042082
61	0x3c93b92b	0.01803263
62	0x3c570f72	0.013126241
63	0xbd852307	-0.065008216
64	0xbd1b049f	-0.037846204
65	0xbd631d95	-0.055448133
66	0x3daa4254	0.08313432
67	0xbda5604c	-0.08075008
68	0xbd1597e4	-0.036521807
69	0x3d03649c	0.03207837
70	0x3d85a41d	0.06525443
71	0x3ddb6329	0.10712273
72	0xbd7f07bc	-0.062263235
73	0xbcf98508	-0.030458942
74	0x3db8c5eb	0.09022125
75	0x3d7c0521	0.06152833
76	0x3b8b6e18	0.0042550676
77	0xbcfbcd37	-0.030737503
78	0xbd61cda3	-0.05512775
79	0xbd98f32a	-0.07468255
80	0xbda855c8	-0.082194865
81	0xbc093e90	-0.0083767325
82	0x3d05899e	0.032601945
83	0x3da99f01	0.08282281
84	0xbba43903	-0.005011679
85	0x3d9e471c	0.07728407
86	0xbb4cd00b	-0.0031251933
87	0x3d86c9b0	0.065814376
88	0x3da81743	0.08207562
89	0x3cc7ee2d	0.024405563
90	0x3b7a8563	0.0038226477
91	0xbcf7adef	-0.030234305
92	0xbc4faf04	-0.012676004
93	0xbd92f78f	-0.07176124
94	0x3d4a03d8	0.049320072
95	0x3d9c9712	0.07646002
96	0x3c0f14de	0.0087330025
97	0x3d3f8c31	0.046764556
98	0x3dcf87e5	0.10133342
99	0xbd9c834b	-0.0764223
100	0x3da35b4d	0.079763986
101	0x3d93930b	0.072057806
102	0xbccb80d5	-0.024841705
103	0x3d2f1b77	0.042750802
104	0xbd5fc5a2	-0.054631837
105	0xbd8a42fe	-0.06751059
106	0xbc9eb464	-0.019373126
107	0xbd70230a	-0.058627166
108	0xbb99a6c4	-0.0046890695
109	0x3d4c3bc6	0.049861692
110	0x3d579278	0.052629918
111	0x3d0b66d2	0.034033604
112	0x3d8e907e	0.069611534
113	0xbd37c5ac	-0.04486625
114	0xbcf99224	-0.030465193
115	0x3c582140	0.013191521
116	0x3c9e7d71	0.019346924
117	0xbd405546	-0.046956323
118	0x3d21ff01	0.03954983
119	0xbd9cafb8	-0.07650703
120	0x3d944168	0.07239038
121	0xbc7ef131	-0.015560434
122	0xbd6c99a3	-0.057763707
123	0x3c8d04ac	0.017214142
124	0xbc8ecd97	-0.017432017
125	0x3d52aab2	0.05143232
126	0x3d102602	0.035192497
127	0x3d42fd14	0.047604635

action_model._discrete_distribution.branches.0.weight f4 [4, 128]
0	0x3b88cf21	0.0041750823
1	0xbcc8fc87	-0.024534477
2	0xbbd9b0a7	-0.006643373
3	0xbbab18fb	-0.0052214838
4	0xbb4d4679	-0.0031322523
5	0x3c497e82	0.012298228
6	0xbc4b5dd0	-0.012412503
7	0xbb9f20dc	-0.004856212
8	0x3cbbecc6	0.02294005
9	0x3d274948	0.04084137
10	0xbb92672c	-0.0044678655
11	0x3bd4a40e	0.0064892834
12	0x3c90a9aa	0.017659027
13	0xbca530aa	-0.020164806
14	0x3bd582d5	0.0065158405
15	0x3b9c6e45	0.0047738873
16	0x3b5c2bb7	0.0033595392
17	0xbb5b9d57	-0.003351053
18	0xbcbb3f41	-0.02285731
19	0x3bb40222	0.0054934183
20	0xbc4c6b28	-0.01247672
21	0xbd555eb0	-0.052092254
22	0xbc39f31b	-0.011349465
23	0xbc198faf	-0.009372636
24	0xbc26f910	-0.010191217
25	0x3c01d7a5	0.007924949
26	0xbbbea96b	-0.005818536
27	0xbc850827	-0.016239239
28	0xbd09fc31	-0.033687774
29	0x3cc8f04b	0.024528643
30	0x3c58e6e3	0.013238641
31	0x3b3da2d3	0.0028936162
32	0xbcabd586	-0.02097584
33	0x3c183ec4	0.009292308
34	0xbcc92c29	-0.02455719
35	0xbb6f7474	-0.0036537917
36	0xbbdca122	-0.0067330757
37	0xbba6dabe	-0.005091994
38	0x3c95e2d1	0.018296631
39	0xbc2da605	-0.010598664
40	0xbc7073b6	-0.014676025
41	0x3cb865ad	0.02250942
42	0xbc28f6eb	-0.010312776
43	0x3c339c27	0.010962523
44	0xbcde635f	-0.027146993
45	0xbaac9386	-0.0013166524
46	0x3bac67ed	0.0052614124
47	0x3c4db38b	0.012555013
48	0xbc5d0fbc	-0.013492521
49	0x3c589d57	0.0132211065
50	0xbd0a2038	-0.033722132
51	0xbc7b57fe	-0.015340803
52	0xbc62a9f5	-0.013834466
53	0xbc9897f6	-0.018627148
54	0xbbb5268b	-0.0055282763
55	0xbb4b11f3	-0.003098604
56	0xbc12b7d7	-0.008954964
57	0x3c8d07eb	0.01721569
58	0x3bbc5af8	0.005748149
59	0x3c560fc3	0.013065281
60	0xbc0203bc	-0.007935461
61	0xbce511e3	-0.02796263
62	0xbcfc1a4f	-0.030774264
63	0x3c93da67	0.018048478
64	0x3a71f7f9	0.0009230371
65	0x3bfc78f6	0.0077048494
66	0xbd3360c9	-0.043793473
67	0x3cf1160c	0.029429458
68	0x3c8b9dbc	0.017042987
69	0x3ab96cb1	0.0014146772
70	0xbc4276a1	-0.011869104
71	0xbd01c123	-0.03167833
72	0x3cc7e46b	0.02440091
73	0x3cf2f7a6	0.029659104
74	0xbc6c6063	-0.014427277
75	0xbbb7c959	-0.0056087193
76	0xbc074a10	-0.008257404
77	0xbb109978	-0.002206413
78	0x3c0a6a41	0.0084481845
79	0x3d0837da	0.03325639
80	0x3c6b5c5b	0.014365281
81	0xbc897626	-0.01677997
82	0xbc1930f5	-0.009350051
83	0xbc96d175	-0.018410424
84	0x3c768e74	0.015048612
85	0x3b285d60	0.0025690421
86	0x3bd9005c	0.0066223573
87	0xbcbc53b2	-0.022989128
88	0xbc8bbfa8	-0.017059162
89	0x3bbde1ef	0.0057947556
90	0x3d0000ef	0.03125089
91	0xbc7fe9dc	-0.015619721
92	0xbc352192	-0.011055367
93	0x3d0b8d04	0.03407003
94	0xbba8d018	-0.00515176
95	0xbc8539b2	-0.016262863
96	0xbc565ee9	-0.013084152
97	0xbceb90a4	-0.028755493
98	0xbd279e56	-0.040922485
99	0x3c33af91	0.010967151
100	0xbd2362c2	-0.039889105
101	0xbc991133	-0.018684959
102	0x3c673742	0.014112296
103	0xbd09a42b	-0.03360383
104	0x3cec403e	0.028839227
105	0x3b920b8b	0.0044569424
106	0x3d0f1b0e	0.03493791
107	0x3cec5ccf	0.028852848
108	0xbcd7fc2b	-0.02636536
109	0x3bb052e4	0.005380975
110	0x3b3d6b6a	0.0028903135
111	0xbc7fbe17	-0.015609286
112	0xbc0b8d16	-0.008517524
113	0x3cea24ed	0.02858206
114	0x3b80646a	0.0039182203
115	0xbbce9a49	-0.0063050133
116	0x3c6e9258	0.014561258
117	0x3c870a7f	0.016484497
118	0xbca0877b	-0.019595852
119	0x3d15e883	0.036598694
120	0x3c074150	0.008255318
121	0xbc00fb8d	-0.007872474
122	0x3b502a9a	0.0031763674
123	0xbc4c4609	-0.01246787
124	0x3bc774ce	0.0060869223
125	0xbbdd9d3c	-0.0067631286
126	0xbcff1005	-0.031135568
127	0xbccc3f0e	-0.02493241
128	0xbcdfda53	-0.027325785
129	0x3d8df7e8	0.0693205
130	0x3c0edb8c	0.008719336
131	0xbb31226c	-0.0027028574
132	0x3b52d176	0.0032168305
133	0xbd07166d	-0.03298037
134	0xb9a5e08c	-0.00031638553
135	0x3c38c9e4	0.011278603
136	0xbd36c52b	-0.044621628
137	0xbdadf427	-0.08493834
138	0x3d0ea3ba	0.03482411
139	0x3d555099	0.052078817
140	0x3d4c7f81	0.049926285
141	0x3c7b4915	0.015337248
142	0xbd5e6497	-0.05429515
143	0x3d448daf	0.047986683
144	0xbbeab51c	-0.007162703
145	0xbd233558	-0.039845794
146	0x3cba5ded	0.022749865
147	0xbd29c0b4	-0.04144354
148	0x3d1bc904	0.0380335
149	0x3d964627	0.07337599
150	0x3d91163b	0.07084318
151	0x3caac843	0.020847445
152	0xbbc2be22	-0.0059430758
153	0x3c4a3dd0	0.012343839
154	0x3cd804e1	0.026369514
155	0x3bce21d0	0.006290652
156	0x37899ff5	1.6406158e-05
157	0xbcaa128a	-0.020760793
158	0xbdaa2e5a	-0.08309622
159	0x3b9a5ff1	0.004711144
160	0x3d29c0be	0.04144358
161	0xbd397d06	-0.045285247
162	0x3d3603fe	0.0444374
163	0x3c7620f7	0.015022508
164	0xbcdbcabf	-0.026830075
165	0xbd0b6582	-0.034032352
166	0xbc1668ab	-0.009180228
167	0x3d44a478	0.048008412
168	0x3d5df5d5	0.05418952
169	0xbdc66cf8	-0.09688753
170	0xbceb3097	-0.028709693
171	0xbc838009	-0.016052263
172	0x3c8a3934	0.01687298
173	0x3da1649c	0.07880518
174	0xbb525420	-0.00320936
175	0xbcec6545	-0.028856883
176	0x3ccb5949	0.024822848
177	0xbda522e2	-0.08063294
178	0x3d3edaf1	0.046595518
179	0x3ad42999	0.0016186713
180	0x3c05a91f	0.008157997
181	0xbc99b710	-0.018764049
182	0x3c892c25	0.016744683
183	0xbb8d991d	-0.004321231
184	0x3d4c8487	0.049931075
185	0x3b90bf72	0.0044173533
186	0x3c5d2d15	0.013499518
187	0xbc13b527	-0.009015358
188	0xbc04ccc6	-0.008105462
189	0x3d62891a	0.05530653
190	0x3d4b37dd	0.049613822
191	0xbd9cd0f6	-0.07657044
192	0xbcef4118	-0.029205844
193	0xbd87f80b	-0.06639107
194	0x3d7f21fa	0.062288262
195	0xbdb8395e	-0.08995317
196	0xbd3c8d91	-0.046033446
197	0xbd34fabf	-0.044184443
198	0xb9066772	-0.00012817772
199	0x3dbe3f84	0.092894584
200	0xbdb542eb	-0.08850654
201	0xbc8f875d	-0.0175206
202	0x3d84a8a2	0.06477477
203	0x3c263d0b	0.01014639
204	0xbc795163	-0.015217158
205	0xbd0b7c7b	-0.03405426
206	0xbd7446da	-0.05963788
207	0xbdd75da1	-0.10515905
208	0xbdc514a7	-0.0962308
209	0x3c74aa6c	0.01493321
210	0x3a4df534	0.00078566675
211	0x3cb9e7df	0.022693573
212	0x3a8af833	0.0010602534
213	0x3d1ac383	0.03778411
214	0xbc61b8d4	-0.013776977
215	0x3ca733db	0.020410469
216	0x3d5633fd	0.052295674
217	0x3af3488d	0.001856105
218	0x3c98d91d	0.018658215
219	0xbcb3f728	-0.02196844
220	0xbab77d39	-0.0013999111
221	0xbd8fc377	-0.07019704
222	0x3d836d75	0.06417362
223	0x3d51bec3	0.051207315
224	0x3ce88800	0.028385162
225	0x3d5c0082	0.05371142
226	0x3d9c3b47	0.07628494
227	0xbd884c19	-0.066551395
228	0x3db17e95	0.08666722
229	0x3d53b65b	0.05168758
230	0xbd8a4349	-0.06751115
231	0x3d428e55	0.04749902
232	0xbd7eddbd	-0.062223185
233	0xbd48bd9c	-0.04900895
234	0xbc562d69	-0.01307235
235	0xbd7ca711	-0.061682764
236	0x3cb427ff	0.021991728
237	0x3d6c7039	0.05772421
238	0x3ca47035	0.020073036
239	0x3b879e8d	0.004138774
240	0x3c179912	0.009252803
241	0xbdc63d77	-0.09679692
242	0xbd1639e6	-0.03667631
243	0x3c1ad2cb	0.009449671
244	0x3c810c27	0.015752865
245	0xbcd675cc	-0.026179217
246	0x3d3072e9	0.043078337
247	0xbdaad076	-0.08340542
248	0x3d09e636	0.033666812
249	0x3b9884f0	0.0046545193
250	0xbd32e8e6	-0.04367914
251	0x3bf4f97a	0.007476029
252	0xbc8a7b92	-0.016904626
253	0xbcdc7e1e	-0.026915606
254	0x3ceb248b	0.028703948
255	0x3ce5c84d	0.028049612

action_model._discrete_distribution.branches.0.bias f4 [4]
0	0xbce216f6	-0.02759884
1	0x3d7a4686	0.061102413
2	0x39dc2ce3	0.00041995113
3	0xbd3dcce0	-0.046337962
